2022-10-30 17:26:03 [229 - INFO ] Create optimizer adam: {'lr': 0.001, 'weight_decay': 1e-05}
2022-10-30 17:26:03 [197 - INFO ] Model summary:
DervbNet(
  (df_computer): DFComputer(
    (stft): STFT(window=sqrt_hann, stride=256, requires_grad=False, kernel_size=514x512)
    (ln_LPS): ChannelWiseLayerNorm((257,), eps=1e-05, elementwise_affine=True)
  )
  (conv1x1_1): Conv1D(257, 256, kernel_size=(1,), stride=(1,))
  (lip_blocks): OxfordLipNet(
    (conv1d_blocks): Sequential(
      (0): OxfordLipConv1DBlock(
        (bn): BatchNorm1d(256, eps=1e-05, momentum=0.1, affine=True, track_running_stats=True)
        (prelu): PReLU(num_parameters=1)
        (dconv): Conv1d(256, 256, kernel_size=(3,), stride=(1,), padding=(1,), groups=256)
        (sconv): Conv1d(256, 256, kernel_size=(1,), stride=(1,))
      )
      (1): OxfordLipConv1DBlock(
        (bn): BatchNorm1d(256, eps=1e-05, momentum=0.1, affine=True, track_running_stats=True)
        (prelu): PReLU(num_parameters=1)
        (dconv): Conv1d(256, 256, kernel_size=(3,), stride=(1,), padding=(1,), groups=256)
        (sconv): Conv1d(256, 256, kernel_size=(1,), stride=(1,))
      )
      (2): OxfordLipConv1DBlock(
        (bn): BatchNorm1d(256, eps=1e-05, momentum=0.1, affine=True, track_running_stats=True)
        (prelu): PReLU(num_parameters=1)
        (dconv): Conv1d(256, 256, kernel_size=(3,), stride=(1,), padding=(1,), groups=256)
        (sconv): Conv1d(256, 256, kernel_size=(1,), stride=(1,))
      )
      (3): OxfordLipConv1DBlock(
        (bn): BatchNorm1d(256, eps=1e-05, momentum=0.1, affine=True, track_running_stats=True)
        (prelu): PReLU(num_parameters=1)
        (dconv): Conv1d(256, 256, kernel_size=(3,), stride=(1,), padding=(1,), groups=256)
        (sconv): Conv1d(256, 256, kernel_size=(1,), stride=(1,))
      )
      (4): OxfordLipConv1DBlock(
        (bn): BatchNorm1d(256, eps=1e-05, momentum=0.1, affine=True, track_running_stats=True)
        (prelu): PReLU(num_parameters=1)
        (dconv): Conv1d(256, 256, kernel_size=(3,), stride=(1,), padding=(1,), groups=256)
        (sconv): Conv1d(256, 256, kernel_size=(1,), stride=(1,))
      )
    )
  )
  (audio_blocks): Sequential(
    (0): Sequential(
      (0): Conv1DBlock(
        (conv1x1): Conv1D(256, 512, kernel_size=(1,), stride=(1,))
        (prelu1): PReLU(num_parameters=1)
        (lnorm1): BatchNorm1d(512, eps=1e-05, momentum=0.1, affine=True, track_running_stats=True)
        (dconv): Conv1d(512, 512, kernel_size=(3,), stride=(1,), padding=(1,), groups=512)
        (prelu2): PReLU(num_parameters=1)
        (lnorm2): BatchNorm1d(512, eps=1e-05, momentum=0.1, affine=True, track_running_stats=True)
        (sconv): Conv1d(512, 256, kernel_size=(1,), stride=(1,))
      )
      (1): Conv1DBlock(
        (conv1x1): Conv1D(256, 512, kernel_size=(1,), stride=(1,))
        (prelu1): PReLU(num_parameters=1)
        (lnorm1): BatchNorm1d(512, eps=1e-05, momentum=0.1, affine=True, track_running_stats=True)
        (dconv): Conv1d(512, 512, kernel_size=(3,), stride=(1,), padding=(2,), dilation=(2,), groups=512)
        (prelu2): PReLU(num_parameters=1)
        (lnorm2): BatchNorm1d(512, eps=1e-05, momentum=0.1, affine=True, track_running_stats=True)
        (sconv): Conv1d(512, 256, kernel_size=(1,), stride=(1,))
      )
      (2): Conv1DBlock(
        (conv1x1): Conv1D(256, 512, kernel_size=(1,), stride=(1,))
        (prelu1): PReLU(num_parameters=1)
        (lnorm1): BatchNorm1d(512, eps=1e-05, momentum=0.1, affine=True, track_running_stats=True)
        (dconv): Conv1d(512, 512, kernel_size=(3,), stride=(1,), padding=(4,), dilation=(4,), groups=512)
        (prelu2): PReLU(num_parameters=1)
        (lnorm2): BatchNorm1d(512, eps=1e-05, momentum=0.1, affine=True, track_running_stats=True)
        (sconv): Conv1d(512, 256, kernel_size=(1,), stride=(1,))
      )
      (3): Conv1DBlock(
        (conv1x1): Conv1D(256, 512, kernel_size=(1,), stride=(1,))
        (prelu1): PReLU(num_parameters=1)
        (lnorm1): BatchNorm1d(512, eps=1e-05, momentum=0.1, affine=True, track_running_stats=True)
        (dconv): Conv1d(512, 512, kernel_size=(3,), stride=(1,), padding=(8,), dilation=(8,), groups=512)
        (prelu2): PReLU(num_parameters=1)
        (lnorm2): BatchNorm1d(512, eps=1e-05, momentum=0.1, affine=True, track_running_stats=True)
        (sconv): Conv1d(512, 256, kernel_size=(1,), stride=(1,))
      )
      (4): Conv1DBlock(
        (conv1x1): Conv1D(256, 512, kernel_size=(1,), stride=(1,))
        (prelu1): PReLU(num_parameters=1)
        (lnorm1): BatchNorm1d(512, eps=1e-05, momentum=0.1, affine=True, track_running_stats=True)
        (dconv): Conv1d(512, 512, kernel_size=(3,), stride=(1,), padding=(16,), dilation=(16,), groups=512)
        (prelu2): PReLU(num_parameters=1)
        (lnorm2): BatchNorm1d(512, eps=1e-05, momentum=0.1, affine=True, track_running_stats=True)
        (sconv): Conv1d(512, 256, kernel_size=(1,), stride=(1,))
      )
      (5): Conv1DBlock(
        (conv1x1): Conv1D(256, 512, kernel_size=(1,), stride=(1,))
        (prelu1): PReLU(num_parameters=1)
        (lnorm1): BatchNorm1d(512, eps=1e-05, momentum=0.1, affine=True, track_running_stats=True)
        (dconv): Conv1d(512, 512, kernel_size=(3,), stride=(1,), padding=(32,), dilation=(32,), groups=512)
        (prelu2): PReLU(num_parameters=1)
        (lnorm2): BatchNorm1d(512, eps=1e-05, momentum=0.1, affine=True, track_running_stats=True)
        (sconv): Conv1d(512, 256, kernel_size=(1,), stride=(1,))
      )
      (6): Conv1DBlock(
        (conv1x1): Conv1D(256, 512, kernel_size=(1,), stride=(1,))
        (prelu1): PReLU(num_parameters=1)
        (lnorm1): BatchNorm1d(512, eps=1e-05, momentum=0.1, affine=True, track_running_stats=True)
        (dconv): Conv1d(512, 512, kernel_size=(3,), stride=(1,), padding=(64,), dilation=(64,), groups=512)
        (prelu2): PReLU(num_parameters=1)
        (lnorm2): BatchNorm1d(512, eps=1e-05, momentum=0.1, affine=True, track_running_stats=True)
        (sconv): Conv1d(512, 256, kernel_size=(1,), stride=(1,))
      )
      (7): Conv1DBlock(
        (conv1x1): Conv1D(256, 512, kernel_size=(1,), stride=(1,))
        (prelu1): PReLU(num_parameters=1)
        (lnorm1): BatchNorm1d(512, eps=1e-05, momentum=0.1, affine=True, track_running_stats=True)
        (dconv): Conv1d(512, 512, kernel_size=(3,), stride=(1,), padding=(128,), dilation=(128,), groups=512)
        (prelu2): PReLU(num_parameters=1)
        (lnorm2): BatchNorm1d(512, eps=1e-05, momentum=0.1, affine=True, track_running_stats=True)
        (sconv): Conv1d(512, 256, kernel_size=(1,), stride=(1,))
      )
    )
  )
  (fusion_blocks): Sequential(
    (0): Sequential(
      (0): Conv1DBlock(
        (conv1x1): Conv1D(256, 512, kernel_size=(1,), stride=(1,))
        (prelu1): PReLU(num_parameters=1)
        (lnorm1): BatchNorm1d(512, eps=1e-05, momentum=0.1, affine=True, track_running_stats=True)
        (dconv): Conv1d(512, 512, kernel_size=(3,), stride=(1,), padding=(1,), groups=512)
        (prelu2): PReLU(num_parameters=1)
        (lnorm2): BatchNorm1d(512, eps=1e-05, momentum=0.1, affine=True, track_running_stats=True)
        (sconv): Conv1d(512, 256, kernel_size=(1,), stride=(1,))
      )
      (1): Conv1DBlock(
        (conv1x1): Conv1D(256, 512, kernel_size=(1,), stride=(1,))
        (prelu1): PReLU(num_parameters=1)
        (lnorm1): BatchNorm1d(512, eps=1e-05, momentum=0.1, affine=True, track_running_stats=True)
        (dconv): Conv1d(512, 512, kernel_size=(3,), stride=(1,), padding=(2,), dilation=(2,), groups=512)
        (prelu2): PReLU(num_parameters=1)
        (lnorm2): BatchNorm1d(512, eps=1e-05, momentum=0.1, affine=True, track_running_stats=True)
        (sconv): Conv1d(512, 256, kernel_size=(1,), stride=(1,))
      )
      (2): Conv1DBlock(
        (conv1x1): Conv1D(256, 512, kernel_size=(1,), stride=(1,))
        (prelu1): PReLU(num_parameters=1)
        (lnorm1): BatchNorm1d(512, eps=1e-05, momentum=0.1, affine=True, track_running_stats=True)
        (dconv): Conv1d(512, 512, kernel_size=(3,), stride=(1,), padding=(4,), dilation=(4,), groups=512)
        (prelu2): PReLU(num_parameters=1)
        (lnorm2): BatchNorm1d(512, eps=1e-05, momentum=0.1, affine=True, track_running_stats=True)
        (sconv): Conv1d(512, 256, kernel_size=(1,), stride=(1,))
      )
      (3): Conv1DBlock(
        (conv1x1): Conv1D(256, 512, kernel_size=(1,), stride=(1,))
        (prelu1): PReLU(num_parameters=1)
        (lnorm1): BatchNorm1d(512, eps=1e-05, momentum=0.1, affine=True, track_running_stats=True)
        (dconv): Conv1d(512, 512, kernel_size=(3,), stride=(1,), padding=(8,), dilation=(8,), groups=512)
        (prelu2): PReLU(num_parameters=1)
        (lnorm2): BatchNorm1d(512, eps=1e-05, momentum=0.1, affine=True, track_running_stats=True)
        (sconv): Conv1d(512, 256, kernel_size=(1,), stride=(1,))
      )
      (4): Conv1DBlock(
        (conv1x1): Conv1D(256, 512, kernel_size=(1,), stride=(1,))
        (prelu1): PReLU(num_parameters=1)
        (lnorm1): BatchNorm1d(512, eps=1e-05, momentum=0.1, affine=True, track_running_stats=True)
        (dconv): Conv1d(512, 512, kernel_size=(3,), stride=(1,), padding=(16,), dilation=(16,), groups=512)
        (prelu2): PReLU(num_parameters=1)
        (lnorm2): BatchNorm1d(512, eps=1e-05, momentum=0.1, affine=True, track_running_stats=True)
        (sconv): Conv1d(512, 256, kernel_size=(1,), stride=(1,))
      )
      (5): Conv1DBlock(
        (conv1x1): Conv1D(256, 512, kernel_size=(1,), stride=(1,))
        (prelu1): PReLU(num_parameters=1)
        (lnorm1): BatchNorm1d(512, eps=1e-05, momentum=0.1, affine=True, track_running_stats=True)
        (dconv): Conv1d(512, 512, kernel_size=(3,), stride=(1,), padding=(32,), dilation=(32,), groups=512)
        (prelu2): PReLU(num_parameters=1)
        (lnorm2): BatchNorm1d(512, eps=1e-05, momentum=0.1, affine=True, track_running_stats=True)
        (sconv): Conv1d(512, 256, kernel_size=(1,), stride=(1,))
      )
      (6): Conv1DBlock(
        (conv1x1): Conv1D(256, 512, kernel_size=(1,), stride=(1,))
        (prelu1): PReLU(num_parameters=1)
        (lnorm1): BatchNorm1d(512, eps=1e-05, momentum=0.1, affine=True, track_running_stats=True)
        (dconv): Conv1d(512, 512, kernel_size=(3,), stride=(1,), padding=(64,), dilation=(64,), groups=512)
        (prelu2): PReLU(num_parameters=1)
        (lnorm2): BatchNorm1d(512, eps=1e-05, momentum=0.1, affine=True, track_running_stats=True)
        (sconv): Conv1d(512, 256, kernel_size=(1,), stride=(1,))
      )
      (7): Conv1DBlock(
        (conv1x1): Conv1D(256, 512, kernel_size=(1,), stride=(1,))
        (prelu1): PReLU(num_parameters=1)
        (lnorm1): BatchNorm1d(512, eps=1e-05, momentum=0.1, affine=True, track_running_stats=True)
        (dconv): Conv1d(512, 512, kernel_size=(3,), stride=(1,), padding=(128,), dilation=(128,), groups=512)
        (prelu2): PReLU(num_parameters=1)
        (lnorm2): BatchNorm1d(512, eps=1e-05, momentum=0.1, affine=True, track_running_stats=True)
        (sconv): Conv1d(512, 256, kernel_size=(1,), stride=(1,))
      )
    )
    (1): Sequential(
      (0): Conv1DBlock(
        (conv1x1): Conv1D(256, 512, kernel_size=(1,), stride=(1,))
        (prelu1): PReLU(num_parameters=1)
        (lnorm1): BatchNorm1d(512, eps=1e-05, momentum=0.1, affine=True, track_running_stats=True)
        (dconv): Conv1d(512, 512, kernel_size=(3,), stride=(1,), padding=(1,), groups=512)
        (prelu2): PReLU(num_parameters=1)
        (lnorm2): BatchNorm1d(512, eps=1e-05, momentum=0.1, affine=True, track_running_stats=True)
        (sconv): Conv1d(512, 256, kernel_size=(1,), stride=(1,))
      )
      (1): Conv1DBlock(
        (conv1x1): Conv1D(256, 512, kernel_size=(1,), stride=(1,))
        (prelu1): PReLU(num_parameters=1)
        (lnorm1): BatchNorm1d(512, eps=1e-05, momentum=0.1, affine=True, track_running_stats=True)
        (dconv): Conv1d(512, 512, kernel_size=(3,), stride=(1,), padding=(2,), dilation=(2,), groups=512)
        (prelu2): PReLU(num_parameters=1)
        (lnorm2): BatchNorm1d(512, eps=1e-05, momentum=0.1, affine=True, track_running_stats=True)
        (sconv): Conv1d(512, 256, kernel_size=(1,), stride=(1,))
      )
      (2): Conv1DBlock(
        (conv1x1): Conv1D(256, 512, kernel_size=(1,), stride=(1,))
        (prelu1): PReLU(num_parameters=1)
        (lnorm1): BatchNorm1d(512, eps=1e-05, momentum=0.1, affine=True, track_running_stats=True)
        (dconv): Conv1d(512, 512, kernel_size=(3,), stride=(1,), padding=(4,), dilation=(4,), groups=512)
        (prelu2): PReLU(num_parameters=1)
        (lnorm2): BatchNorm1d(512, eps=1e-05, momentum=0.1, affine=True, track_running_stats=True)
        (sconv): Conv1d(512, 256, kernel_size=(1,), stride=(1,))
      )
      (3): Conv1DBlock(
        (conv1x1): Conv1D(256, 512, kernel_size=(1,), stride=(1,))
        (prelu1): PReLU(num_parameters=1)
        (lnorm1): BatchNorm1d(512, eps=1e-05, momentum=0.1, affine=True, track_running_stats=True)
        (dconv): Conv1d(512, 512, kernel_size=(3,), stride=(1,), padding=(8,), dilation=(8,), groups=512)
        (prelu2): PReLU(num_parameters=1)
        (lnorm2): BatchNorm1d(512, eps=1e-05, momentum=0.1, affine=True, track_running_stats=True)
        (sconv): Conv1d(512, 256, kernel_size=(1,), stride=(1,))
      )
      (4): Conv1DBlock(
        (conv1x1): Conv1D(256, 512, kernel_size=(1,), stride=(1,))
        (prelu1): PReLU(num_parameters=1)
        (lnorm1): BatchNorm1d(512, eps=1e-05, momentum=0.1, affine=True, track_running_stats=True)
        (dconv): Conv1d(512, 512, kernel_size=(3,), stride=(1,), padding=(16,), dilation=(16,), groups=512)
        (prelu2): PReLU(num_parameters=1)
        (lnorm2): BatchNorm1d(512, eps=1e-05, momentum=0.1, affine=True, track_running_stats=True)
        (sconv): Conv1d(512, 256, kernel_size=(1,), stride=(1,))
      )
      (5): Conv1DBlock(
        (conv1x1): Conv1D(256, 512, kernel_size=(1,), stride=(1,))
        (prelu1): PReLU(num_parameters=1)
        (lnorm1): BatchNorm1d(512, eps=1e-05, momentum=0.1, affine=True, track_running_stats=True)
        (dconv): Conv1d(512, 512, kernel_size=(3,), stride=(1,), padding=(32,), dilation=(32,), groups=512)
        (prelu2): PReLU(num_parameters=1)
        (lnorm2): BatchNorm1d(512, eps=1e-05, momentum=0.1, affine=True, track_running_stats=True)
        (sconv): Conv1d(512, 256, kernel_size=(1,), stride=(1,))
      )
      (6): Conv1DBlock(
        (conv1x1): Conv1D(256, 512, kernel_size=(1,), stride=(1,))
        (prelu1): PReLU(num_parameters=1)
        (lnorm1): BatchNorm1d(512, eps=1e-05, momentum=0.1, affine=True, track_running_stats=True)
        (dconv): Conv1d(512, 512, kernel_size=(3,), stride=(1,), padding=(64,), dilation=(64,), groups=512)
        (prelu2): PReLU(num_parameters=1)
        (lnorm2): BatchNorm1d(512, eps=1e-05, momentum=0.1, affine=True, track_running_stats=True)
        (sconv): Conv1d(512, 256, kernel_size=(1,), stride=(1,))
      )
      (7): Conv1DBlock(
        (conv1x1): Conv1D(256, 512, kernel_size=(1,), stride=(1,))
        (prelu1): PReLU(num_parameters=1)
        (lnorm1): BatchNorm1d(512, eps=1e-05, momentum=0.1, affine=True, track_running_stats=True)
        (dconv): Conv1d(512, 512, kernel_size=(3,), stride=(1,), padding=(128,), dilation=(128,), groups=512)
        (prelu2): PReLU(num_parameters=1)
        (lnorm2): BatchNorm1d(512, eps=1e-05, momentum=0.1, affine=True, track_running_stats=True)
        (sconv): Conv1d(512, 256, kernel_size=(1,), stride=(1,))
      )
    )
    (2): Sequential(
      (0): Conv1DBlock(
        (conv1x1): Conv1D(256, 512, kernel_size=(1,), stride=(1,))
        (prelu1): PReLU(num_parameters=1)
        (lnorm1): BatchNorm1d(512, eps=1e-05, momentum=0.1, affine=True, track_running_stats=True)
        (dconv): Conv1d(512, 512, kernel_size=(3,), stride=(1,), padding=(1,), groups=512)
        (prelu2): PReLU(num_parameters=1)
        (lnorm2): BatchNorm1d(512, eps=1e-05, momentum=0.1, affine=True, track_running_stats=True)
        (sconv): Conv1d(512, 256, kernel_size=(1,), stride=(1,))
      )
      (1): Conv1DBlock(
        (conv1x1): Conv1D(256, 512, kernel_size=(1,), stride=(1,))
        (prelu1): PReLU(num_parameters=1)
        (lnorm1): BatchNorm1d(512, eps=1e-05, momentum=0.1, affine=True, track_running_stats=True)
        (dconv): Conv1d(512, 512, kernel_size=(3,), stride=(1,), padding=(2,), dilation=(2,), groups=512)
        (prelu2): PReLU(num_parameters=1)
        (lnorm2): BatchNorm1d(512, eps=1e-05, momentum=0.1, affine=True, track_running_stats=True)
        (sconv): Conv1d(512, 256, kernel_size=(1,), stride=(1,))
      )
      (2): Conv1DBlock(
        (conv1x1): Conv1D(256, 512, kernel_size=(1,), stride=(1,))
        (prelu1): PReLU(num_parameters=1)
        (lnorm1): BatchNorm1d(512, eps=1e-05, momentum=0.1, affine=True, track_running_stats=True)
        (dconv): Conv1d(512, 512, kernel_size=(3,), stride=(1,), padding=(4,), dilation=(4,), groups=512)
        (prelu2): PReLU(num_parameters=1)
        (lnorm2): BatchNorm1d(512, eps=1e-05, momentum=0.1, affine=True, track_running_stats=True)
        (sconv): Conv1d(512, 256, kernel_size=(1,), stride=(1,))
      )
      (3): Conv1DBlock(
        (conv1x1): Conv1D(256, 512, kernel_size=(1,), stride=(1,))
        (prelu1): PReLU(num_parameters=1)
        (lnorm1): BatchNorm1d(512, eps=1e-05, momentum=0.1, affine=True, track_running_stats=True)
        (dconv): Conv1d(512, 512, kernel_size=(3,), stride=(1,), padding=(8,), dilation=(8,), groups=512)
        (prelu2): PReLU(num_parameters=1)
        (lnorm2): BatchNorm1d(512, eps=1e-05, momentum=0.1, affine=True, track_running_stats=True)
        (sconv): Conv1d(512, 256, kernel_size=(1,), stride=(1,))
      )
      (4): Conv1DBlock(
        (conv1x1): Conv1D(256, 512, kernel_size=(1,), stride=(1,))
        (prelu1): PReLU(num_parameters=1)
        (lnorm1): BatchNorm1d(512, eps=1e-05, momentum=0.1, affine=True, track_running_stats=True)
        (dconv): Conv1d(512, 512, kernel_size=(3,), stride=(1,), padding=(16,), dilation=(16,), groups=512)
        (prelu2): PReLU(num_parameters=1)
        (lnorm2): BatchNorm1d(512, eps=1e-05, momentum=0.1, affine=True, track_running_stats=True)
        (sconv): Conv1d(512, 256, kernel_size=(1,), stride=(1,))
      )
      (5): Conv1DBlock(
        (conv1x1): Conv1D(256, 512, kernel_size=(1,), stride=(1,))
        (prelu1): PReLU(num_parameters=1)
        (lnorm1): BatchNorm1d(512, eps=1e-05, momentum=0.1, affine=True, track_running_stats=True)
        (dconv): Conv1d(512, 512, kernel_size=(3,), stride=(1,), padding=(32,), dilation=(32,), groups=512)
        (prelu2): PReLU(num_parameters=1)
        (lnorm2): BatchNorm1d(512, eps=1e-05, momentum=0.1, affine=True, track_running_stats=True)
        (sconv): Conv1d(512, 256, kernel_size=(1,), stride=(1,))
      )
      (6): Conv1DBlock(
        (conv1x1): Conv1D(256, 512, kernel_size=(1,), stride=(1,))
        (prelu1): PReLU(num_parameters=1)
        (lnorm1): BatchNorm1d(512, eps=1e-05, momentum=0.1, affine=True, track_running_stats=True)
        (dconv): Conv1d(512, 512, kernel_size=(3,), stride=(1,), padding=(64,), dilation=(64,), groups=512)
        (prelu2): PReLU(num_parameters=1)
        (lnorm2): BatchNorm1d(512, eps=1e-05, momentum=0.1, affine=True, track_running_stats=True)
        (sconv): Conv1d(512, 256, kernel_size=(1,), stride=(1,))
      )
      (7): Conv1DBlock(
        (conv1x1): Conv1D(256, 512, kernel_size=(1,), stride=(1,))
        (prelu1): PReLU(num_parameters=1)
        (lnorm1): BatchNorm1d(512, eps=1e-05, momentum=0.1, affine=True, track_running_stats=True)
        (dconv): Conv1d(512, 512, kernel_size=(3,), stride=(1,), padding=(128,), dilation=(128,), groups=512)
        (prelu2): PReLU(num_parameters=1)
        (lnorm2): BatchNorm1d(512, eps=1e-05, momentum=0.1, affine=True, track_running_stats=True)
        (sconv): Conv1d(512, 256, kernel_size=(1,), stride=(1,))
      )
    )
  )
  (conv1x1_2_real): Conv1D(256, 257, kernel_size=(1,), stride=(1,))
  (conv1x1_2_imag): Conv1D(256, 257, kernel_size=(1,), stride=(1,))
  (fc1): Linear(in_features=512, out_features=256, bias=True)
  (fc2): Linear(in_features=512, out_features=256, bias=True)
  (lfb): LFB()
  (istft): iSTFT(window=sqrt_hann, stride=256, requires_grad=False, kernel_size=514x512)
  (ln_visual_512): ChannelWiseLayerNorm((512,), eps=1e-05, elementwise_affine=True)
  (ln_visual_256): ChannelWiseLayerNorm((256,), eps=1e-05, elementwise_affine=True)
)
2022-10-30 17:26:03 [198 - INFO ] Loading model to GPUs:(0,), #param: 9.88M
2022-10-30 17:26:06 [307 - INFO ] START FROM EPOCH 0
…
